Active configuration: LARGE
Model parameters: Experts=16, Hidden Dim=1024, Layers=4, Top-K=4
Generating complex synthetic data...
Data generation complete.
Using device: cuda

--- Original MoE Model ---
 - Original MoE (Top-4) Architecture ---
MoE(
  (experts): ModuleList(
    (0-15): 16 x Expert(
      (net): Sequential(
        (0): Linear(in_features=784, out_features=1024, bias=True)
        (1): ReLU()
        (2): Linear(in_features=1024, out_features=1024, bias=True)
        (3): ReLU()
        (4): Linear(in_features=1024, out_features=1024, bias=True)
        (5): ReLU()
        (6): Linear(in_features=1024, out_features=1024, bias=True)
        (7): ReLU()
        (8): Linear(in_features=1024, out_features=10, bias=True)
      )
    )
  )
  (gating): Linear(in_features=784, out_features=16, bias=True)
)
--- Parameters ---
Layer: experts.0.net.0.weight, Parameters: 802816
Layer: experts.0.net.0.bias, Parameters: 1024
Layer: experts.0.net.2.weight, Parameters: 1048576
Layer: experts.0.net.2.bias, Parameters: 1024
Layer: experts.0.net.4.weight, Parameters: 1048576
Layer: experts.0.net.4.bias, Parameters: 1024
Layer: experts.0.net.6.weight, Parameters: 1048576
…
Epoch 7/15, Loss: 0.1879, Accuracy: 94.30%
Epoch 8/15, Loss: 0.1883, Accuracy: 94.47%
Epoch 9/15, Loss: 0.2047, Accuracy: 94.20%
Epoch 10/15, Loss: 0.1687, Accuracy: 95.42%
Epoch 11/15, Loss: 0.1703, Accuracy: 95.47%
Epoch 12/15, Loss: 0.1583, Accuracy: 95.49%
Epoch 13/15, Loss: 0.2153, Accuracy: 94.20%
Epoch 14/15, Loss: 0.1730, Accuracy: 95.24%
Epoch 15/15, Loss: 0.1473, Accuracy: 96.50%

Target Baseline Params (1 Expert + Gating): 63418800
Using Baseline Config: Num Layers=4
Calculated Baseline Hidden Dimension (Approx): 4467
 - Baseline Model Architecture ---
BaselineMLP(
  (net): Sequential(
    (0): Linear(in_features=784, out_features=4467, bias=True)
    (1): ReLU()
    (2): Linear(in_features=4467, out_features=4467, bias=True)
    (3): ReLU()
    (4): Linear(in_features=4467, out_features=4467, bias=True)
    (5): ReLU()
    (6): Linear(in_features=4467, out_features=4467, bias=True)
    (7): ReLU()
    (8): Linear(in_features=4467, out_features=10, bias=True)
  )
)
--- Parameters ---
Layer: net.0.weight, Parameters: 3502128
Layer: net.0.bias, Parameters: 4467
Layer: net.2.weight, Parameters: 19954089
Layer: net.2.bias, Parameters: 4467
Layer: net.4.weight, Parameters: 19954089
Layer: net.4.bias, Parameters: 4467
Layer: net.6.weight, Parameters: 19954089
Layer: net.6.bias, Parameters: 4467
Layer: net.8.weight, Parameters: 44670
…
