Active configuration: LARGE
Model parameters: Experts=20, Hidden Dim=2048, Layers=5, Top-K=5
Generating complex synthetic data...
Data generation complete.
Using device: cuda

--- Original MoE Model ---
 - Original MoE (Top-5) Architecture ---
MoE(
  (experts): ModuleList(
    (0-19): 20 x Expert(
      (net): Sequential(
        (0): Linear(in_features=784, out_features=2048, bias=True)
        (1): ReLU()
        (2): Linear(in_features=2048, out_features=2048, bias=True)
        (3): ReLU()
        (4): Linear(in_features=2048, out_features=2048, bias=True)
        (5): ReLU()
        (6): Linear(in_features=2048, out_features=2048, bias=True)
        (7): ReLU()
        (8): Linear(in_features=2048, out_features=2048, bias=True)
        (9): ReLU()
        (10): Linear(in_features=2048, out_features=10, bias=True)
      )
    )
  )
  (gating): Linear(in_features=784, out_features=20, bias=True)
)
--- Parameters ---
Layer: experts.0.net.0.weight, Parameters: 1605632
Layer: experts.0.net.0.bias, Parameters: 2048
Layer: experts.0.net.2.weight, Parameters: 4194304
Layer: experts.0.net.2.bias, Parameters: 2048
Layer: experts.0.net.4.weight, Parameters: 4194304
Layer: experts.0.net.4.bias, Parameters: 2048
Layer: experts.0.net.6.weight, Parameters: 4194304
…
Epoch 7/15, Loss: 0.5029, Accuracy: 83.49%
Epoch 8/15, Loss: 0.4176, Accuracy: 86.46%
Epoch 9/15, Loss: 0.4048, Accuracy: 87.83%
Epoch 10/15, Loss: 0.4130, Accuracy: 87.62%
Epoch 11/15, Loss: 0.3291, Accuracy: 90.38%
Epoch 12/15, Loss: 0.3026, Accuracy: 91.18%
Epoch 13/15, Loss: 0.2565, Accuracy: 92.92%
Epoch 14/15, Loss: 0.2764, Accuracy: 92.57%
Epoch 15/15, Loss: 0.3195, Accuracy: 91.72%

Target Baseline Params (1 Expert + Gating): 368287260
Using Baseline Config: Num Layers=5
Calculated Baseline Hidden Dimension (Approx): 9497
 - Baseline Model Architecture ---
BaselineMLP(
  (net): Sequential(
    (0): Linear(in_features=784, out_features=9497, bias=True)
    (1): ReLU()
    (2): Linear(in_features=9497, out_features=9497, bias=True)
    (3): ReLU()
    (4): Linear(in_features=9497, out_features=9497, bias=True)
    (5): ReLU()
    (6): Linear(in_features=9497, out_features=9497, bias=True)
    (7): ReLU()
    (8): Linear(in_features=9497, out_features=9497, bias=True)
    (9): ReLU()
    (10): Linear(in_features=9497, out_features=10, bias=True)
  )
)
--- Parameters ---
Layer: net.0.weight, Parameters: 7445648
Layer: net.0.bias, Parameters: 9497
Layer: net.2.weight, Parameters: 90193009
Layer: net.2.bias, Parameters: 9497
Layer: net.4.weight, Parameters: 90193009
Layer: net.4.bias, Parameters: 9497
Layer: net.6.weight, Parameters: 90193009
Layer: net.6.bias, Parameters: 9497
Layer: net.8.weight, Parameters: 90193009
…
